…
KG loaded successfully for SelectiveKGAttention
Loading knowledge graph from /ssd-data1/sq2023/belajar/semantic_kg.json
Loaded 138122 nodes and 335834 edges
Found 11934 error words with corrections
KG loaded successfully for SelectiveKGAttention
Loading knowledge graph from /ssd-data1/sq2023/belajar/semantic_kg.json
Loaded 138122 nodes and 335834 edges
Found 11934 error words with corrections
KG loaded successfully for SelectiveKGAttention
2025-05-29 21:54:13 | INFO | fairseq_cli.train | CastleTransformerModel(
  (encoder): SelectiveKGEncoder(
    (dropout_module): FairseqDropout()
    (embed_tokens): Embedding(20088, 256, padding_idx=1)
    (embed_positions): SinusoidalPositionalEmbedding()
    (layers): ModuleList(
      (0): SelectiveKGEncoderLayer(
        (self_attn): SelectiveKGAttention(
          (dropout_module): FairseqDropout()
          (k_proj): Linear(in_features=256, out_features=256, bias=True)
          (v_proj): Linear(in_features=256, out_features=256, bias=True)
          (q_proj): Linear(in_features=256, out_features=256, bias=True)
          (out_proj): Linear(in_features=256, out_features=256, bias=True)
          (context_proj): Linear(in_features=256, out_features=256, bias=True)
          (layer_norm): LayerNorm((256,), eps=1e-05, elementwise_affine=True)
          (confidence_predictor): Sequential(
            (0): Linear(in_features=256, out_features=128, bias=True)
            (1): LayerNorm((128,), eps=1e-05, elementwise_affine=True)
            (2): ReLU()
            (3): Dropout(p=0.1, inplace=False)
            (4): Linear(in_features=128, out_features=1, bias=True)
            (5): Sigmoid()
          )
          (kg_q_proj): Linear(in_features=256, out_features=256, bias=True)
          (kg_k_proj): Linear(in_features=256, out_features=256, bias=True)
          (category_predictor): Sequential(
            (0): Linear(in_features=256, out_features=128, bias=True)
            (1): LayerNorm((128,), eps=1e-05, elementwise_affine=True)
            (2): ReLU()
            (3): Dropout(p=0.1, inplace=False)
            (4): Linear(in_features=128, out_features=3, bias=True)
          )
        )
        (self_attn_layer_norm): LayerNorm((256,), eps=1e-05, elementwise_affine=True)
        (dropout_module): FairseqDropout()
        (activation_dropout_module): FairseqDropout()
        (fc1): Linear(in_features=256, out_features=2048, bias=True)
        (fc2): Linear(in_features=2048, out_features=256, bias=True)
        (final_layer_norm): LayerNorm((256,), eps=1e-05, elementwise_affine=True)
      )
      (1): SelectiveKGEncoderLayer(
        (self_attn): SelectiveKGAttention(
          (dropout_module): FairseqDropout()
          (k_proj): Linear(in_features=256, out_features=256, bias=True)
          (v_proj): Linear(in_features=256, out_features=256, bias=True)
          (q_proj): Linear(in_features=256, out_features=256, bias=True)
          (out_proj): Linear(in_features=256, out_features=256, bias=True)
          (context_proj): Linear(in_features=256, out_features=256, bias=True)
          (layer_norm): LayerNorm((256,), eps=1e-05, elementwise_affine=True)
          (confidence_predictor): Sequential(
            (0): Linear(in_features=256, out_features=128, bias=True)
            (1): LayerNorm((128,), eps=1e-05, elementwise_affine=True)
            (2): ReLU()
            (3): Dropout(p=0.1, inplace=False)
            (4): Linear(in_features=128, out_features=1, bias=True)
            (5): Sigmoid()
          )
          (kg_q_proj): Linear(in_features=256, out_features=256, bias=True)
          (kg_k_proj): Linear(in_features=256, out_features=256, bias=True)
          (category_predictor): Sequential(
            (0): Linear(in_features=256, out_features=128, bias=True)
            (1): LayerNorm((128,), eps=1e-05, elementwise_affine=True)
            (2): ReLU()
            (3): Dropout(p=0.1, inplace=False)
            (4): Linear(in_features=128, out_features=3, bias=True)
          )
          (prev_attention): SelectiveKGAttention(
            (dropout_module): FairseqDropout()
            (k_proj): Linear(in_features=256, out_features=256, bias=True)
            (v_proj): Linear(in_features=256, out_features=256, bias=True)
            (q_proj): Linear(in_features=256, out_features=256, bias=True)
            (out_proj): Linear(in_features=256, out_features=256, bias=True)
            (context_proj): Linear(in_features=256, out_features=256, bias=True)
            (layer_norm): LayerNorm((256,), eps=1e-05, elementwise_affine=True)
            (confidence_predictor): Sequential(
              (0): Linear(in_features=256, out_features=128, bias=True)
              (1): LayerNorm((128,), eps=1e-05, elementwise_affine=True)
              (2): ReLU()
              (3): Dropout(p=0.1, inplace=False)
              (4): Linear(in_features=128, out_features=1, bias=True)
              (5): Sigmoid()
            )
            (kg_q_proj): Linear(in_features=256, out_features=256, bias=True)
            (kg_k_proj): Linear(in_features=256, out_features=256, bias=True)
            (category_predictor): Sequential(
              (0): Linear(in_features=256, out_features=128, bias=True)
              (1): LayerNorm((128,), eps=1e-05, elementwise_affine=True)
              (2): ReLU()
              (3): Dropout(p=0.1, inplace=False)
              (4): Linear(in_features=128, out_features=3, bias=True)
            )
          )
        )
        (self_attn_layer_norm): LayerNorm((256,), eps=1e-05, elementwise_affine=True)
        (dropout_module): FairseqDropout()
        (activation_dropout_module): FairseqDropout()
        (fc1): Linear(in_features=256, out_features=2048, bias=True)
        (fc2): Linear(in_features=2048, out_features=256, bias=True)
        (final_layer_norm): LayerNorm((256,), eps=1e-05, elementwise_affine=True)
      )
      (2): SelectiveKGEncoderLayer(
        (self_attn): SelectiveKGAttention(
          (dropout_module): FairseqDropout()
          (k_proj): Linear(in_features=256, out_features=256, bias=True)
          (v_proj): Linear(in_features=256, out_features=256, bias=True)
          (q_proj): Linear(in_features=256, out_features=256, bias=True)
          (out_proj): Linear(in_features=256, out_features=256, bias=True)
          (context_proj): Linear(in_features=256, out_features=256, bias=True)
          (layer_norm): LayerNorm((256,), eps=1e-05, elementwise_affine=True)
          (confidence_predictor): Sequential(
            (0): Linear(in_features=256, out_features=128, bias=True)
            (1): LayerNorm((128,), eps=1e-05, elementwise_affine=True)
            (2): ReLU()
            (3): Dropout(p=0.1, inplace=False)
            (4): Linear(in_features=128, out_features=1, bias=True)
            (5): Sigmoid()
          )
          (kg_q_proj): Linear(in_features=256, out_features=256, bias=True)
          (kg_k_proj): Linear(in_features=256, out_features=256, bias=True)
          (category_predictor): Sequential(
            (0): Linear(in_features=256, out_features=128, bias=True)
            (1): LayerNorm((128,), eps=1e-05, elementwise_affine=True)
            (2): ReLU()
            (3): Dropout(p=0.1, inplace=False)
            (4): Linear(in_features=128, out_features=3, bias=True)
          )
          (prev_attention): SelectiveKGAttention(
            (dropout_module): FairseqDropout()
            (k_proj): Linear(in_features=256, out_features=256, bias=True)
            (v_proj): Linear(in_features=256, out_features=256, bias=True)
            (q_proj): Linear(in_features=256, out_features=256, bias=True)
            (out_proj): Linear(in_features=256, out_features=256, bias=True)
            (context_proj): Linear(in_features=256, out_features=256, bias=True)
            (layer_norm): LayerNorm((256,), eps=1e-05, elementwise_affine=True)
            (confidence_predictor): Sequential(
              (0): Linear(in_features=256, out_features=128, bias=True)
              (1): LayerNorm((128,), eps=1e-05, elementwise_affine=True)
              (2): ReLU()
              (3): Dropout(p=0.1, inplace=False)
              (4): Linear(in_features=128, out_features=1, bias=True)
              (5): Sigmoid()
            )
            (kg_q_proj): Linear(in_features=256, out_features=256, bias=True)
            (kg_k_proj): Linear(in_features=256, out_features=256, bias=True)
            (category_predictor): Sequential(
              (0): Linear(in_features=256, out_features=128, bias=True)
              (1): LayerNorm((128,), eps=1e-05, elementwise_affine=True)
              (2): ReLU()
              (3): Dropout(p=0.1, inplace=False)
              (4): Linear(in_features=128, out_features=3, bias=True)
            )
            (prev_attention): SelectiveKGAttention(
              (dropout_module): FairseqDropout()
              (k_proj): Linear(in_features=256, out_features=256, bias=True)
              (v_proj): Linear(in_features=256, out_features=256, bias=True)
              (q_proj): Linear(in_features=256, out_features=256, bias=True)
              (out_proj): Linear(in_features=256, out_features=256, bias=True)
              (context_proj): Linear(in_features=256, out_features=256, bias=True)
              (layer_norm): LayerNorm((256,), eps=1e-05, elementwise_affine=True)
              (confidence_predictor): Sequential(
                (0): Linear(in_features=256, out_features=128, bias=True)
                (1): LayerNorm((128,), eps=1e-05, elementwise_affine=True)
                (2): ReLU()
                (3): Dropout(p=0.1, inplace=False)
                (4): Linear(in_features=128, out_features=1, bias=True)
                (5): Sigmoid()
              )
              (kg_q_proj): Linear(in_features=256, out_features=256, bias=True)
              (kg_k_proj): Linear(in_features=256, out_features=256, bias=True)
              (category_predictor): Sequential(
                (0): Linear(in_features=256, out_features=128, bias=True)
                (1): LayerNorm((128,), eps=1e-05, elementwise_affine=True)
                (2): ReLU()
                (3): Dropout(p=0.1, inplace=False)
                (4): Linear(in_features=128, out_features=3, bias=True)
              )
            )
          )
        )
        (self_attn_layer_norm): LayerNorm((256,), eps=1e-05, elementwise_affine=True)
        (dropout_module): FairseqDropout()
        (activation_dropout_module): FairseqDropout()
        (fc1): Linear(in_features=256, out_features=2048, bias=True)
        (fc2): Linear(in_features=2048, out_features=256, bias=True)
        (final_layer_norm): LayerNorm((256,), eps=1e-05, elementwise_affine=True)
      )
      (3): SelectiveKGEncoderLayer(
        (self_attn): SelectiveKGAttention(
          (dropout_module): FairseqDropout()
          (k_proj): Linear(in_features=256, out_features=256, bias=True)
          (v_proj): Linear(in_features=256, out_features=256, bias=True)
          (q_proj): Linear(in_features=256, out_features=256, bias=True)
          (out_proj): Linear(in_features=256, out_features=256, bias=True)
          (context_proj): Linear(in_features=256, out_features=256, bias=True)
          (layer_norm): LayerNorm((256,), eps=1e-05, elementwise_affine=True)
          (confidence_predictor): Sequential(
            (0): Linear(in_features=256, out_features=128, bias=True)
            (1): LayerNorm((128,), eps=1e-05, elementwise_affine=True)
            (2): ReLU()
            (3): Dropout(p=0.1, inplace=False)
            (4): Linear(in_features=128, out_features=1, bias=True)
            (5): Sigmoid()
          )
          (kg_q_proj): Linear(in_features=256, out_features=256, bias=True)
          (kg_k_proj): Linear(in_features=256, out_features=256, bias=True)
          (category_predictor): Sequential(
            (0): Linear(in_features=256, out_features=128, bias=True)
            (1): LayerNorm((128,), eps=1e-05, elementwise_affine=True)
            (2): ReLU()
            (3): Dropout(p=0.1, inplace=False)
            (4): Linear(in_features=128, out_features=3, bias=True)
          )
          (prev_attention): SelectiveKGAttention(
            (dropout_module): FairseqDropout()
            (k_proj): Linear(in_features=256, out_features=256, bias=True)
            (v_proj): Linear(in_features=256, out_features=256, bias=True)
            (q_proj): Linear(in_features=256, out_features=256, bias=True)
            (out_proj): Linear(in_features=256, out_features=256, bias=True)
            (context_proj): Linear(in_features=256, out_features=256, bias=True)
            (layer_norm): LayerNorm((256,), eps=1e-05, elementwise_affine=True)
            (confidence_predictor): Sequential(
              (0): Linear(in_features=256, out_features=128, bias=True)
              (1): LayerNorm((128,), eps=1e-05, elementwise_affine=True)
              (2): ReLU()
              (3): Dropout(p=0.1, inplace=False)
              (4): Linear(in_features=128, out_features=1, bias=True)
              (5): Sigmoid()
            )
            (kg_q_proj): Linear(in_features=256, out_features=256, bias=True)
            (kg_k_proj): Linear(in_features=256, out_features=256, bias=True)
            (category_predictor): Sequential(
              (0): Linear(in_features=256, out_features=128, bias=True)
              (1): LayerNorm((128,), eps=1e-05, elementwise_affine=True)
              (2): ReLU()
              (3): Dropout(p=0.1, inplace=False)
              (4): Linear(in_features=128, out_features=3, bias=True)
            )
            (prev_attention): SelectiveKGAttention(
              (dropout_module): FairseqDropout()
              (k_proj): Linear(in_features=256, out_features=256, bias=True)
              (v_proj): Linear(in_features=256, out_features=256, bias=True)
              (q_proj): Linear(in_features=256, out_features=256, bias=True)
              (out_proj): Linear(in_features=256, out_features=256, bias=True)
              (context_proj): Linear(in_features=256, out_features=256, bias=True)
              (layer_norm): LayerNorm((256,), eps=1e-05, elementwise_affine=True)
              (confidence_predictor): Sequential(
                (0): Linear(in_features=256, out_features=128, bias=True)
                (1): LayerNorm((128,), eps=1e-05, elementwise_affine=True)
                (2): ReLU()
                (3): Dropout(p=0.1, inplace=False)
                (4): Linear(in_features=128, out_features=1, bias=True)
                (5): Sigmoid()
              )
              (kg_q_proj): Linear(in_features=256, out_features=256, bias=True)
              (kg_k_proj): Linear(in_features=256, out_features=256, bias=True)
              (category_predictor): Sequential(
                (0): Linear(in_features=256, out_features=128, bias=True)
                (1): LayerNorm((128,), eps=1e-05, elementwise_affine=True)
                (2): ReLU()
                (3): Dropout(p=0.1, inplace=False)
                (4): Linear(in_features=128, out_features=3, bias=True)
              )
              (prev_attention): SelectiveKGAttention(
                (dropout_module): FairseqDropout()
                (k_proj): Linear(in_features=256, out_features=256, bias=True)
                (v_proj): Linear(in_features=256, out_features=256, bias=True)
                (q_proj): Linear(in_features=256, out_features=256, bias=True)
                (out_proj): Linear(in_features=256, out_features=256, bias=True)
                (context_proj): Linear(in_features=256, out_features=256, bias=True)
                (layer_norm): LayerNorm((256,), eps=1e-05, elementwise_affine=True)
                (confidence_predictor): Sequential(
                  (0): Linear(in_features=256, out_features=128, bias=True)
                  (1): LayerNorm((128,), eps=1e-05, elementwise_affine=True)
                  (2): ReLU()
                  (3): Dropout(p=0.1, inplace=False)
                  (4): Linear(in_features=128, out_features=1, bias=True)
                  (5): Sigmoid()
                )
                (kg_q_proj): Linear(in_features=256, out_features=256, bias=True)
                (kg_k_proj): Linear(in_features=256, out_features=256, bias=True)
                (category_predictor): Sequential(
                  (0): Linear(in_features=256, out_features=128, bias=True)
                  (1): LayerNorm((128,), eps=1e-05, elementwise_affine=True)
                  (2): ReLU()
                  (3): Dropout(p=0.1, inplace=False)
                  (4): Linear(in_features=128, out_features=3, bias=True)
                )
              )
            )
          )
        )
        (self_attn_layer_norm): LayerNorm((256,), eps=1e-05, elementwise_affine=True)
        (dropout_module): FairseqDropout()
        (activation_dropout_module): FairseqDropout()
        (fc1): Linear(in_features=256, out_features=2048, bias=True)
        (fc2): Linear(in_features=2048, out_features=256, bias=True)
        (final_layer_norm): LayerNorm((256,), eps=1e-05, elementwise_affine=True)
      )
    )
  )
  (decoder): SelectiveKGDecoder(
    (dropout_module): FairseqDropout()
    (embed_tokens): Embedding(20024, 256, padding_idx=1)
    (embed_positions): SinusoidalPositionalEmbedding()
    (layers): ModuleList(
      (0): SelectiveKGDecoderLayer(
        (dropout_module): FairseqDropout()
        (self_attn): SelectiveKGAttention(
          (dropout_module): FairseqDropout()
          (k_proj): Linear(in_features=256, out_features=256, bias=True)
          (v_proj): Linear(in_features=256, out_features=256, bias=True)
          (q_proj): Linear(in_features=256, out_features=256, bias=True)
          (out_proj): Linear(in_features=256, out_features=256, bias=True)
          (context_proj): Linear(in_features=256, out_features=256, bias=True)
          (layer_norm): LayerNorm((256,), eps=1e-05, elementwise_affine=True)
          (confidence_predictor): Sequential(
            (0): Linear(in_features=256, out_features=128, bias=True)
            (1): LayerNorm((128,), eps=1e-05, elementwise_affine=True)
            (2): ReLU()
            (3): Dropout(p=0.1, inplace=False)
            (4): Linear(in_features=128, out_features=1, bias=True)
            (5): Sigmoid()
          )
          (kg_q_proj): Linear(in_features=256, out_features=256, bias=True)
          (kg_k_proj): Linear(in_features=256, out_features=256, bias=True)
          (category_predictor): Sequential(
            (0): Linear(in_features=256, out_features=128, bias=True)
            (1): LayerNorm((128,), eps=1e-05, elementwise_affine=True)
            (2): ReLU()
            (3): Dropout(p=0.1, inplace=False)
            (4): Linear(in_features=128, out_features=3, bias=True)
          )
        )
        (activation_dropout_module): FairseqDropout()
        (self_attn_layer_norm): LayerNorm((256,), eps=1e-05, elementwise_affine=True)
        (encoder_attn): SelectiveKGAttention(
          (dropout_module): FairseqDropout()
          (k_proj): Linear(in_features=256, out_features=256, bias=True)
          (v_proj): Linear(in_features=256, out_features=256, bias=True)
          (q_proj): Linear(in_features=256, out_features=256, bias=True)
          (out_proj): Linear(in_features=256, out_features=256, bias=True)
          (context_proj): Linear(in_features=256, out_features=256, bias=True)
          (layer_norm): LayerNorm((256,), eps=1e-05, elementwise_affine=True)
          (confidence_predictor): Sequential(
            (0): Linear(in_features=256, out_features=128, bias=True)
            (1): LayerNorm((128,), eps=1e-05, elementwise_affine=True)
            (2): ReLU()
            (3): Dropout(p=0.1, inplace=False)
            (4): Linear(in_features=128, out_features=1, bias=True)
            (5): Sigmoid()
          )
          (kg_q_proj): Linear(in_features=256, out_features=256, bias=True)
          (kg_k_proj): Linear(in_features=256, out_features=256, bias=True)
          (category_predictor): Sequential(
            (0): Linear(in_features=256, out_features=128, bias=True)
            (1): LayerNorm((128,), eps=1e-05, elementwise_affine=True)
            (2): ReLU()
            (3): Dropout(p=0.1, inplace=False)
            (4): Linear(in_features=128, out_features=3, bias=True)
          )
        )
        (encoder_attn_layer_norm): LayerNorm((256,), eps=1e-05, elementwise_affine=True)
        (fc1): Linear(in_features=256, out_features=2048, bias=True)
        (fc2): Linear(in_features=2048, out_features=256, bias=True)
        (final_layer_norm): LayerNorm((256,), eps=1e-05, elementwise_affine=True)
      )
      (1): SelectiveKGDecoderLayer(
        (dropout_module): FairseqDropout()
        (self_attn): SelectiveKGAttention(
          (dropout_module): FairseqDropout()
          (k_proj): Linear(in_features=256, out_features=256, bias=True)
          (v_proj): Linear(in_features=256, out_features=256, bias=True)
          (q_proj): Linear(in_features=256, out_features=256, bias=True)
          (out_proj): Linear(in_features=256, out_features=256, bias=True)
          (context_proj): Linear(in_features=256, out_features=256, bias=True)
          (layer_norm): LayerNorm((256,), eps=1e-05, elementwise_affine=True)
          (confidence_predictor): Sequential(
            (0): Linear(in_features=256, out_features=128, bias=True)
            (1): LayerNorm((128,), eps=1e-05, elementwise_affine=True)
            (2): ReLU()
            (3): Dropout(p=0.1, inplace=False)
            (4): Linear(in_features=128, out_features=1, bias=True)
            (5): Sigmoid()
          )
          (kg_q_proj): Linear(in_features=256, out_features=256, bias=True)
          (kg_k_proj): Linear(in_features=256, out_features=256, bias=True)
          (category_predictor): Sequential(
            (0): Linear(in_features=256, out_features=128, bias=True)
            (1): LayerNorm((128,), eps=1e-05, elementwise_affine=True)
            (2): ReLU()
            (3): Dropout(p=0.1, inplace=False)
            (4): Linear(in_features=128, out_features=3, bias=True)
          )
          (prev_attention): SelectiveKGAttention(
            (dropout_module): FairseqDropout()
            (k_proj): Linear(in_features=256, out_features=256, bias=True)
            (v_proj): Linear(in_features=256, out_features=256, bias=True)
            (q_proj): Linear(in_features=256, out_features=256, bias=True)
            (out_proj): Linear(in_features=256, out_features=256, bias=True)
            (context_proj): Linear(in_features=256, out_features=256, bias=True)
            (layer_norm): LayerNorm((256,), eps=1e-05, elementwise_affine=True)
            (confidence_predictor): Sequential(
              (0): Linear(in_features=256, out_features=128, bias=True)
              (1): LayerNorm((128,), eps=1e-05, elementwise_affine=True)
              (2): ReLU()
              (3): Dropout(p=0.1, inplace=False)
              (4): Linear(in_features=128, out_features=1, bias=True)
              (5): Sigmoid()
            )
            (kg_q_proj): Linear(in_features=256, out_features=256, bias=True)
            (kg_k_proj): Linear(in_features=256, out_features=256, bias=True)
            (category_predictor): Sequential(
              (0): Linear(in_features=256, out_features=128, bias=True)
              (1): LayerNorm((128,), eps=1e-05, elementwise_affine=True)
              (2): ReLU()
              (3): Dropout(p=0.1, inplace=False)
              (4): Linear(in_features=128, out_features=3, bias=True)
            )
          )
        )
        (activation_dropout_module): FairseqDropout()
        (self_attn_layer_norm): LayerNorm((256,), eps=1e-05, elementwise_affine=True)
        (encoder_attn): SelectiveKGAttention(
          (dropout_module): FairseqDropout()
          (k_proj): Linear(in_features=256, out_features=256, bias=True)
          (v_proj): Linear(in_features=256, out_features=256, bias=True)
          (q_proj): Linear(in_features=256, out_features=256, bias=True)
          (out_proj): Linear(in_features=256, out_features=256, bias=True)
          (context_proj): Linear(in_features=256, out_features=256, bias=True)
          (layer_norm): LayerNorm((256,), eps=1e-05, elementwise_affine=True)
          (confidence_predictor): Sequential(
            (0): Linear(in_features=256, out_features=128, bias=True)
            (1): LayerNorm((128,), eps=1e-05, elementwise_affine=True)
            (2): ReLU()
            (3): Dropout(p=0.1, inplace=False)
            (4): Linear(in_features=128, out_features=1, bias=True)
            (5): Sigmoid()
          )
          (kg_q_proj): Linear(in_features=256, out_features=256, bias=True)
          (kg_k_proj): Linear(in_features=256, out_features=256, bias=True)
          (category_predictor): Sequential(
            (0): Linear(in_features=256, out_features=128, bias=True)
            (1): LayerNorm((128,), eps=1e-05, elementwise_affine=True)
            (2): ReLU()
            (3): Dropout(p=0.1, inplace=False)
            (4): Linear(in_features=128, out_features=3, bias=True)
          )
          (prev_attention): SelectiveKGAttention(
            (dropout_module): FairseqDropout()
            (k_proj): Linear(in_features=256, out_features=256, bias=True)
            (v_proj): Linear(in_features=256, out_features=256, bias=True)
            (q_proj): Linear(in_features=256, out_features=256, bias=True)
            (out_proj): Linear(in_features=256, out_features=256, bias=True)
            (context_proj): Linear(in_features=256, out_features=256, bias=True)
            (layer_norm): LayerNorm((256,), eps=1e-05, elementwise_affine=True)
            (confidence_predictor): Sequential(
              (0): Linear(in_features=256, out_features=128, bias=True)
              (1): LayerNorm((128,), eps=1e-05, elementwise_affine=True)
              (2): ReLU()
              (3): Dropout(p=0.1, inplace=False)
              (4): Linear(in_features=128, out_features=1, bias=True)
              (5): Sigmoid()
            )
            (kg_q_proj): Linear(in_features=256, out_features=256, bias=True)
            (kg_k_proj): Linear(in_features=256, out_features=256, bias=True)
            (category_predictor): Sequential(
              (0): Linear(in_features=256, out_features=128, bias=True)
              (1): LayerNorm((128,), eps=1e-05, elementwise_affine=True)
              (2): ReLU()
              (3): Dropout(p=0.1, inplace=False)
              (4): Linear(in_features=128, out_features=3, bias=True)
            )
          )
        )
        (encoder_attn_layer_norm): LayerNorm((256,), eps=1e-05, elementwise_affine=True)
        (fc1): Linear(in_features=256, out_features=2048, bias=True)
        (fc2): Linear(in_features=2048, out_features=256, bias=True)
        (final_layer_norm): LayerNorm((256,), eps=1e-05, elementwise_affine=True)
      )
      (2): SelectiveKGDecoderLayer(
        (dropout_module): FairseqDropout()
        (self_attn): SelectiveKGAttention(
          (dropout_module): FairseqDropout()
          (k_proj): Linear(in_features=256, out_features=256, bias=True)
          (v_proj): Linear(in_features=256, out_features=256, bias=True)
          (q_proj): Linear(in_features=256, out_features=256, bias=True)
          (out_proj): Linear(in_features=256, out_features=256, bias=True)
          (context_proj): Linear(in_features=256, out_features=256, bias=True)
          (layer_norm): LayerNorm((256,), eps=1e-05, elementwise_affine=True)
          (confidence_predictor): Sequential(
            (0): Linear(in_features=256, out_features=128, bias=True)
            (1): LayerNorm((128,), eps=1e-05, elementwise_affine=True)
            (2): ReLU()
            (3): Dropout(p=0.1, inplace=False)
            (4): Linear(in_features=128, out_features=1, bias=True)
            (5): Sigmoid()
          )
          (kg_q_proj): Linear(in_features=256, out_features=256, bias=True)
          (kg_k_proj): Linear(in_features=256, out_features=256, bias=True)
          (category_predictor): Sequential(
            (0): Linear(in_features=256, out_features=128, bias=True)
            (1): LayerNorm((128,), eps=1e-05, elementwise_affine=True)
            (2): ReLU()
            (3): Dropout(p=0.1, inplace=False)
            (4): Linear(in_features=128, out_features=3, bias=True)
          )
          (prev_attention): SelectiveKGAttention(
            (dropout_module): FairseqDropout()
            (k_proj): Linear(in_features=256, out_features=256, bias=True)
            (v_proj): Linear(in_features=256, out_features=256, bias=True)
            (q_proj): Linear(in_features=256, out_features=256, bias=True)
            (out_proj): Linear(in_features=256, out_features=256, bias=True)
            (context_proj): Linear(in_features=256, out_features=256, bias=True)
            (layer_norm): LayerNorm((256,), eps=1e-05, elementwise_affine=True)
            (confidence_predictor): Sequential(
              (0): Linear(in_features=256, out_features=128, bias=True)
              (1): LayerNorm((128,), eps=1e-05, elementwise_affine=True)
              (2): ReLU()
              (3): Dropout(p=0.1, inplace=False)
              (4): Linear(in_features=128, out_features=1, bias=True)
              (5): Sigmoid()
            )
            (kg_q_proj): Linear(in_features=256, out_features=256, bias=True)
            (kg_k_proj): Linear(in_features=256, out_features=256, bias=True)
            (category_predictor): Sequential(
              (0): Linear(in_features=256, out_features=128, bias=True)
              (1): LayerNorm((128,), eps=1e-05, elementwise_affine=True)
              (2): ReLU()
              (3): Dropout(p=0.1, inplace=False)
              (4): Linear(in_features=128, out_features=3, bias=True)
            )
            (prev_attention): SelectiveKGAttention(
              (dropout_module): FairseqDropout()
              (k_proj): Linear(in_features=256, out_features=256, bias=True)
              (v_proj): Linear(in_features=256, out_features=256, bias=True)
              (q_proj): Linear(in_features=256, out_features=256, bias=True)
              (out_proj): Linear(in_features=256, out_features=256, bias=True)
              (context_proj): Linear(in_features=256, out_features=256, bias=True)
              (layer_norm): LayerNorm((256,), eps=1e-05, elementwise_affine=True)
              (confidence_predictor): Sequential(
                (0): Linear(in_features=256, out_features=128, bias=True)
                (1): LayerNorm((128,), eps=1e-05, elementwise_affine=True)
                (2): ReLU()
                (3): Dropout(p=0.1, inplace=False)
                (4): Linear(in_features=128, out_features=1, bias=True)
                (5): Sigmoid()
              )
              (kg_q_proj): Linear(in_features=256, out_features=256, bias=True)
              (kg_k_proj): Linear(in_features=256, out_features=256, bias=True)
              (category_predictor): Sequential(
                (0): Linear(in_features=256, out_features=128, bias=True)
                (1): LayerNorm((128,), eps=1e-05, elementwise_affine=True)
                (2): ReLU()
                (3): Dropout(p=0.1, inplace=False)
                (4): Linear(in_features=128, out_features=3, bias=True)
              )
            )
          )
        )
        (activation_dropout_module): FairseqDropout()
        (self_attn_layer_norm): LayerNorm((256,), eps=1e-05, elementwise_affine=True)
        (encoder_attn): SelectiveKGAttention(
          (dropout_module): FairseqDropout()
          (k_proj): Linear(in_features=256, out_features=256, bias=True)
          (v_proj): Linear(in_features=256, out_features=256, bias=True)
          (q_proj): Linear(in_features=256, out_features=256, bias=True)
          (out_proj): Linear(in_features=256, out_features=256, bias=True)
          (context_proj): Linear(in_features=256, out_features=256, bias=True)
          (layer_norm): LayerNorm((256,), eps=1e-05, elementwise_affine=True)
          (confidence_predictor): Sequential(
            (0): Linear(in_features=256, out_features=128, bias=True)
            (1): LayerNorm((128,), eps=1e-05, elementwise_affine=True)
            (2): ReLU()
            (3): Dropout(p=0.1, inplace=False)
            (4): Linear(in_features=128, out_features=1, bias=True)
            (5): Sigmoid()
          )
          (kg_q_proj): Linear(in_features=256, out_features=256, bias=True)
          (kg_k_proj): Linear(in_features=256, out_features=256, bias=True)
          (category_predictor): Sequential(
            (0): Linear(in_features=256, out_features=128, bias=True)
            (1): LayerNorm((128,), eps=1e-05, elementwise_affine=True)
            (2): ReLU()
            (3): Dropout(p=0.1, inplace=False)
            (4): Linear(in_features=128, out_features=3, bias=True)
          )
          (prev_attention): SelectiveKGAttention(
            (dropout_module): FairseqDropout()
            (k_proj): Linear(in_features=256, out_features=256, bias=True)
            (v_proj): Linear(in_features=256, out_features=256, bias=True)
            (q_proj): Linear(in_features=256, out_features=256, bias=True)
            (out_proj): Linear(in_features=256, out_features=256, bias=True)
            (context_proj): Linear(in_features=256, out_features=256, bias=True)
            (layer_norm): LayerNorm((256,), eps=1e-05, elementwise_affine=True)
            (confidence_predictor): Sequential(
              (0): Linear(in_features=256, out_features=128, bias=True)
              (1): LayerNorm((128,), eps=1e-05, elementwise_affine=True)
              (2): ReLU()
              (3): Dropout(p=0.1, inplace=False)
              (4): Linear(in_features=128, out_features=1, bias=True)
              (5): Sigmoid()
            )
            (kg_q_proj): Linear(in_features=256, out_features=256, bias=True)
            (kg_k_proj): Linear(in_features=256, out_features=256, bias=True)
            (category_predictor): Sequential(
              (0): Linear(in_features=256, out_features=128, bias=True)
              (1): LayerNorm((128,), eps=1e-05, elementwise_affine=True)
              (2): ReLU()
              (3): Dropout(p=0.1, inplace=False)
              (4): Linear(in_features=128, out_features=3, bias=True)
            )
            (prev_attention): SelectiveKGAttention(
              (dropout_module): FairseqDropout()
              (k_proj): Linear(in_features=256, out_features=256, bias=True)
              (v_proj): Linear(in_features=256, out_features=256, bias=True)
              (q_proj): Linear(in_features=256, out_features=256, bias=True)
              (out_proj): Linear(in_features=256, out_features=256, bias=True)
              (context_proj): Linear(in_features=256, out_features=256, bias=True)
              (layer_norm): LayerNorm((256,), eps=1e-05, elementwise_affine=True)
              (confidence_predictor): Sequential(
                (0): Linear(in_features=256, out_features=128, bias=True)
                (1): LayerNorm((128,), eps=1e-05, elementwise_affine=True)
                (2): ReLU()
                (3): Dropout(p=0.1, inplace=False)
                (4): Linear(in_features=128, out_features=1, bias=True)
                (5): Sigmoid()
              )
              (kg_q_proj): Linear(in_features=256, out_features=256, bias=True)
              (kg_k_proj): Linear(in_features=256, out_features=256, bias=True)
              (category_predictor): Sequential(
                (0): Linear(in_features=256, out_features=128, bias=True)
                (1): LayerNorm((128,), eps=1e-05, elementwise_affine=True)
                (2): ReLU()
                (3): Dropout(p=0.1, inplace=False)
                (4): Linear(in_features=128, out_features=3, bias=True)
              )
            )
          )
        )
        (encoder_attn_layer_norm): LayerNorm((256,), eps=1e-05, elementwise_affine=True)
        (fc1): Linear(in_features=256, out_features=2048, bias=True)
        (fc2): Linear(in_features=2048, out_features=256, bias=True)
        (final_layer_norm): LayerNorm((256,), eps=1e-05, elementwise_affine=True)
      )
      (3): SelectiveKGDecoderLayer(
        (dropout_module): FairseqDropout()
        (self_attn): SelectiveKGAttention(
          (dropout_module): FairseqDropout()
          (k_proj): Linear(in_features=256, out_features=256, bias=True)
          (v_proj): Linear(in_features=256, out_features=256, bias=True)
          (q_proj): Linear(in_features=256, out_features=256, bias=True)
          (out_proj): Linear(in_features=256, out_features=256, bias=True)
          (context_proj): Linear(in_features=256, out_features=256, bias=True)
          (layer_norm): LayerNorm((256,), eps=1e-05, elementwise_affine=True)
          (confidence_predictor): Sequential(
            (0): Linear(in_features=256, out_features=128, bias=True)
            (1): LayerNorm((128,), eps=1e-05, elementwise_affine=True)
            (2): ReLU()
            (3): Dropout(p=0.1, inplace=False)
            (4): Linear(in_features=128, out_features=1, bias=True)
            (5): Sigmoid()
          )
          (kg_q_proj): Linear(in_features=256, out_features=256, bias=True)
          (kg_k_proj): Linear(in_features=256, out_features=256, bias=True)
          (category_predictor): Sequential(
            (0): Linear(in_features=256, out_features=128, bias=True)
            (1): LayerNorm((128,), eps=1e-05, elementwise_affine=True)
            (2): ReLU()
            (3): Dropout(p=0.1, inplace=False)
            (4): Linear(in_features=128, out_features=3, bias=True)
          )
          (prev_attention): SelectiveKGAttention(
            (dropout_module): FairseqDropout()
            (k_proj): Linear(in_features=256, out_features=256, bias=True)
            (v_proj): Linear(in_features=256, out_features=256, bias=True)
            (q_proj): Linear(in_features=256, out_features=256, bias=True)
            (out_proj): Linear(in_features=256, out_features=256, bias=True)
            (context_proj): Linear(in_features=256, out_features=256, bias=True)
            (layer_norm): LayerNorm((256,), eps=1e-05, elementwise_affine=True)
            (confidence_predictor): Sequential(
              (0): Linear(in_features=256, out_features=128, bias=True)
              (1): LayerNorm((128,), eps=1e-05, elementwise_affine=True)
              (2): ReLU()
              (3): Dropout(p=0.1, inplace=False)
              (4): Linear(in_features=128, out_features=1, bias=True)
              (5): Sigmoid()
            )
            (kg_q_proj): Linear(in_features=256, out_features=256, bias=True)
            (kg_k_proj): Linear(in_features=256, out_features=256, bias=True)
            (category_predictor): Sequential(
              (0): Linear(in_features=256, out_features=128, bias=True)
              (1): LayerNorm((128,), eps=1e-05, elementwise_affine=True)
              (2): ReLU()
              (3): Dropout(p=0.1, inplace=False)
              (4): Linear(in_features=128, out_features=3, bias=True)
            )
            (prev_attention): SelectiveKGAttention(
              (dropout_module): FairseqDropout()
              (k_proj): Linear(in_features=256, out_features=256, bias=True)
              (v_proj): Linear(in_features=256, out_features=256, bias=True)
              (q_proj): Linear(in_features=256, out_features=256, bias=True)
              (out_proj): Linear(in_features=256, out_features=256, bias=True)
              (context_proj): Linear(in_features=256, out_features=256, bias=True)
              (layer_norm): LayerNorm((256,), eps=1e-05, elementwise_affine=True)
              (confidence_predictor): Sequential(
                (0): Linear(in_features=256, out_features=128, bias=True)
                (1): LayerNorm((128,), eps=1e-05, elementwise_affine=True)
                (2): ReLU()
                (3): Dropout(p=0.1, inplace=False)
                (4): Linear(in_features=128, out_features=1, bias=True)
                (5): Sigmoid()
              )
              (kg_q_proj): Linear(in_features=256, out_features=256, bias=True)
              (kg_k_proj): Linear(in_features=256, out_features=256, bias=True)
              (category_predictor): Sequential(
                (0): Linear(in_features=256, out_features=128, bias=True)
                (1): LayerNorm((128,), eps=1e-05, elementwise_affine=True)
                (2): ReLU()
                (3): Dropout(p=0.1, inplace=False)
                (4): Linear(in_features=128, out_features=3, bias=True)
              )
              (prev_attention): SelectiveKGAttention(
                (dropout_module): FairseqDropout()
                (k_proj): Linear(in_features=256, out_features=256, bias=True)
                (v_proj): Linear(in_features=256, out_features=256, bias=True)
                (q_proj): Linear(in_features=256, out_features=256, bias=True)
                (out_proj): Linear(in_features=256, out_features=256, bias=True)
                (context_proj): Linear(in_features=256, out_features=256, bias=True)
                (layer_norm): LayerNorm((256,), eps=1e-05, elementwise_affine=True)
                (confidence_predictor): Sequential(
                  (0): Linear(in_features=256, out_features=128, bias=True)
                  (1): LayerNorm((128,), eps=1e-05, elementwise_affine=True)
                  (2): ReLU()
                  (3): Dropout(p=0.1, inplace=False)
                  (4): Linear(in_features=128, out_features=1, bias=True)
                  (5): Sigmoid()
                )
                (kg_q_proj): Linear(in_features=256, out_features=256, bias=True)
                (kg_k_proj): Linear(in_features=256, out_features=256, bias=True)
                (category_predictor): Sequential(
                  (0): Linear(in_features=256, out_features=128, bias=True)
                  (1): LayerNorm((128,), eps=1e-05, elementwise_affine=True)
                  (2): ReLU()
                  (3): Dropout(p=0.1, inplace=False)
                  (4): Linear(in_features=128, out_features=3, bias=True)
                )
              )
            )
          )
        )
        (activation_dropout_module): FairseqDropout()
        (self_attn_layer_norm): LayerNorm((256,), eps=1e-05, elementwise_affine=True)
        (encoder_attn): SelectiveKGAttention(
          (dropout_module): FairseqDropout()
          (k_proj): Linear(in_features=256, out_features=256, bias=True)
          (v_proj): Linear(in_features=256, out_features=256, bias=True)
          (q_proj): Linear(in_features=256, out_features=256, bias=True)
          (out_proj): Linear(in_features=256, out_features=256, bias=True)
          (context_proj): Linear(in_features=256, out_features=256, bias=True)
          (layer_norm): LayerNorm((256,), eps=1e-05, elementwise_affine=True)
          (confidence_predictor): Sequential(
            (0): Linear(in_features=256, out_features=128, bias=True)
            (1): LayerNorm((128,), eps=1e-05, elementwise_affine=True)
            (2): ReLU()
            (3): Dropout(p=0.1, inplace=False)
            (4): Linear(in_features=128, out_features=1, bias=True)
            (5): Sigmoid()
          )
          (kg_q_proj): Linear(in_features=256, out_features=256, bias=True)
          (kg_k_proj): Linear(in_features=256, out_features=256, bias=True)
          (category_predictor): Sequential(
            (0): Linear(in_features=256, out_features=128, bias=True)
            (1): LayerNorm((128,), eps=1e-05, elementwise_affine=True)
            (2): ReLU()
            (3): Dropout(p=0.1, inplace=False)
            (4): Linear(in_features=128, out_features=3, bias=True)
          )
          (prev_attention): SelectiveKGAttention(
            (dropout_module): FairseqDropout()
            (k_proj): Linear(in_features=256, out_features=256, bias=True)
            (v_proj): Linear(in_features=256, out_features=256, bias=True)
            (q_proj): Linear(in_features=256, out_features=256, bias=True)
            (out_proj): Linear(in_features=256, out_features=256, bias=True)
            (context_proj): Linear(in_features=256, out_features=256, bias=True)
            (layer_norm): LayerNorm((256,), eps=1e-05, elementwise_affine=True)
            (confidence_predictor): Sequential(
              (0): Linear(in_features=256, out_features=128, bias=True)
              (1): LayerNorm((128,), eps=1e-05, elementwise_affine=True)
              (2): ReLU()
              (3): Dropout(p=0.1, inplace=False)
              (4): Linear(in_features=128, out_features=1, bias=True)
              (5): Sigmoid()
            )
            (kg_q_proj): Linear(in_features=256, out_features=256, bias=True)
            (kg_k_proj): Linear(in_features=256, out_features=256, bias=True)
            (category_predictor): Sequential(
              (0): Linear(in_features=256, out_features=128, bias=True)
              (1): LayerNorm((128,), eps=1e-05, elementwise_affine=True)
              (2): ReLU()
              (3): Dropout(p=0.1, inplace=False)
              (4): Linear(in_features=128, out_features=3, bias=True)
            )
            (prev_attention): SelectiveKGAttention(
              (dropout_module): FairseqDropout()
              (k_proj): Linear(in_features=256, out_features=256, bias=True)
              (v_proj): Linear(in_features=256, out_features=256, bias=True)
              (q_proj): Linear(in_features=256, out_features=256, bias=True)
              (out_proj): Linear(in_features=256, out_features=256, bias=True)
              (context_proj): Linear(in_features=256, out_features=256, bias=True)
              (layer_norm): LayerNorm((256,), eps=1e-05, elementwise_affine=True)
              (confidence_predictor): Sequential(
                (0): Linear(in_features=256, out_features=128, bias=True)
                (1): LayerNorm((128,), eps=1e-05, elementwise_affine=True)
                (2): ReLU()
                (3): Dropout(p=0.1, inplace=False)
                (4): Linear(in_features=128, out_features=1, bias=True)
                (5): Sigmoid()
              )
              (kg_q_proj): Linear(in_features=256, out_features=256, bias=True)
              (kg_k_proj): Linear(in_features=256, out_features=256, bias=True)
              (category_predictor): Sequential(
                (0): Linear(in_features=256, out_features=128, bias=True)
                (1): LayerNorm((128,), eps=1e-05, elementwise_affine=True)
                (2): ReLU()
                (3): Dropout(p=0.1, inplace=False)
                (4): Linear(in_features=128, out_features=3, bias=True)
              )
              (prev_attention): SelectiveKGAttention(
                (dropout_module): FairseqDropout()
                (k_proj): Linear(in_features=256, out_features=256, bias=True)
                (v_proj): Linear(in_features=256, out_features=256, bias=True)
                (q_proj): Linear(in_features=256, out_features=256, bias=True)
                (out_proj): Linear(in_features=256, out_features=256, bias=True)
                (context_proj): Linear(in_features=256, out_features=256, bias=True)
                (layer_norm): LayerNorm((256,), eps=1e-05, elementwise_affine=True)
                (confidence_predictor): Sequential(
                  (0): Linear(in_features=256, out_features=128, bias=True)
                  (1): LayerNorm((128,), eps=1e-05, elementwise_affine=True)
                  (2): ReLU()
                  (3): Dropout(p=0.1, inplace=False)
                  (4): Linear(in_features=128, out_features=1, bias=True)
                  (5): Sigmoid()
                )
                (kg_q_proj): Linear(in_features=256, out_features=256, bias=True)
                (kg_k_proj): Linear(in_features=256, out_features=256, bias=True)
                (category_predictor): Sequential(
                  (0): Linear(in_features=256, out_features=128, bias=True)
                  (1): LayerNorm((128,), eps=1e-05, elementwise_affine=True)
                  (2): ReLU()
                  (3): Dropout(p=0.1, inplace=False)
                  (4): Linear(in_features=128, out_features=3, bias=True)
                )
              )
            )
          )
        )
        (encoder_attn_layer_norm): LayerNorm((256,), eps=1e-05, elementwise_affine=True)
        (fc1): Linear(in_features=256, out_features=2048, bias=True)
        (fc2): Linear(in_features=2048, out_features=256, bias=True)
        (final_layer_norm): LayerNorm((256,), eps=1e-05, elementwise_affine=True)
      )
    )
    (output_projection): Linear(in_features=256, out_features=20024, bias=False)
  )
)
2025-05-29 21:54:13 | INFO | fairseq_cli.train | task: translation (TranslationTask)
2025-05-29 21:54:13 | INFO | fairseq_cli.train | model: castle_transformer (CastleTransformerModel)
2025-05-29 21:54:13 | INFO | fairseq_cli.train | criterion: label_smoothed_cross_entropy (LabelSmoothedCrossEntropyCriterion)
2025-05-29 21:54:13 | INFO | fairseq_cli.train | num. model params: 25020536 (num. trained: 25020536)
…
